Backend-Prediction/model_tflite_tabular_audio.tflite (tflite, 750792 bytes, 11 tensors)

model_14/dense_94/BiasAdd/ReadVariableOp/resource f4 [512]
0	0xbd77eb5e	-0.060527198
1	0xbc860dfd	-0.016364092
2	0xbc980237	-0.018555744
3	0xbd8b8aee	-0.06813608
4	0xbca9ad5a	-0.020712543
5	0xbd152c5f	-0.03641927
6	0xbd143ed3	-0.036192726
7	0xbd74c249	-0.059755597
8	0xbcccd997	-0.025006099
9	0xbd9d863b	-0.07691618
10	0xbd002d0f	-0.03129297
11	0xbc4e8db7	-0.01260703
12	0xbcac7998	-0.021054074
13	0xbb1d8eb7	-0.0024041364
14	0xbd272935	-0.040810782
15	0xbce96498	-0.02849035
16	0xbd18817c	-0.03723286
17	0xbd3c1eac	-0.04592769
18	0x3bc09471	0.0058770706
19	0xbd693736	-0.05693742
20	0x3d902c0b	0.070396505
21	0x3a76aec3	0.0009410197
22	0xbd858796	-0.065200016
23	0xbd72ca41	-0.059274916
24	0xbcd35903	-0.02579928
25	0xbca3a3c3	-0.019975549
26	0xbc5148ab	-0.012773673
27	0xbd7643e5	-0.060123343
28	0xbd956ab3	-0.07295742
29	0xbc8cf221	-0.0172053
30	0xbd43b6b8	-0.047781676
31	0xbc279e7e	-0.010230659
32	0x3c886202	0.016648296
33	0xbcb96a5a	-0.02263372
34	0xbd7211b5	-0.059098918
35	0xbcc6592b	-0.02421244
36	0xbcb756ed	-0.022380317
37	0xbcaebfdc	-0.02133172
38	0xbd877baa	-0.06615384
39	0x3c5e592f	0.013571068
40	0x3c95fa10	0.018307716
41	0x3c473e01	0.012160779
42	0xbd0ab93f	-0.03386807
43	0x3cb0c67c	0.02157902
44	0xbd4f4866	-0.050606154
45	0xbd03a653	-0.03214104
46	0xbbd7cc35	-0.0065856227
47	0xbc55dde3	-0.01305339
48	0xb932e550	-0.00017060828
49	0xbcacbcdf	-0.021086155
50	0x3ca6d8ab	0.020366987
51	0xbd551385	-0.05202057
52	0xbd8838f1	-0.06651486
53	0xbcf079f6	-0.02935503
54	0xbbdf8119	-0.0068208096
55	0x3c0c9d0a	0.008582363
56	0xbd893557	-0.06699627
57	0xbd2d772d	-0.042349983
58	0xbd3943de	-0.04523074
59	0xbc2f2d62	-0.010691972
60	0x3d50462f	0.050848182
61	0x3c9293aa	0.017892677
62	0x3c07800a	0.008270273
63	0xbca22681	-0.01979375
64	0x3cbd71f1	0.02312562
65	0x3cad5a78	0.021161303
66	0xbcf4d9f9	-0.029889094
67	0x3c5d57c2	0.013509693
68	0xbd19079b	-0.03736077
69	0xbd7166b0	-0.05893582
70	0xbccbe47c	-0.024889223
71	0xbb98ef2f	-0.004667185
72	0xbd47da68	-0.048792273
73	0xbc3e1b76	-0.011603227
74	0xbd24aef5	-0.040205915
75	0xbc527b4e	-0.012846781
76	0xbcb60eaf	-0.022223799
77	0xbcbe4a28	-0.02322872
78	0xbd8b819d	-0.06811831
79	0xbd72a2fc	-0.059237465
80	0x3c8e967a	0.017405737
81	0xbd901616	-0.070354626
82	0xbc900f6c	-0.017585479
83	0x3cf21895	0.029552737
84	0x3c6a76d6	0.014310559
85	0xbce815d0	-0.028330714
86	0xbd80ccc4	-0.06289056
87	0x3cb50cf5	0.022100905
88	0xbcf33f90	-0.029693395
89	0xbce67801	-0.028133394
90	0x3bada311	0.00529898
91	0xbc8fcf0f	-0.017554788
92	0x3c83081a	0.015995074
93	0xbcfc51e2	-0.030800764
94	0xbcf5b744	-0.029994614
95	0xbcf652e0	-0.030068815
96	0x3cd10369	0.025514321
97	0xbd57175d	-0.052512515
98	0xbda0d74d	-0.07853565
99	0x3cc188e6	0.023624849
100	0xbd8dfbe3	-0.06932809
101	0xbcb495a3	-0.022044009
102	0xbd3fe9be	-0.046853773
103	0x38f3b225	0.00011620325
104	0xbcd67242	-0.02617753
105	0x3ca946b2	0.020663593
106	0x3c71f079	0.014766806
107	0xbd3ebdaf	-0.046567615
108	0xbba224cf	-0.0049482356
109	0xbab7962f	-0.001400655
110	0xbcb4f26e	-0.022088256
111	0xbc33099c	-0.010927584
112	0xbd73229a	-0.05935917
113	0xbc2238ca	-0.009901235
114	0xbd1a62a9	-0.037691746
115	0xbc834002	-0.016021732
116	0xbc79f883	-0.015257004
117	0xbd0fbd2e	-0.035092525
118	0xbcdc7e62	-0.026915733
119	0xbb021fb8	-0.0019855332
120	0xbc75e47e	-0.01500809
121	0xbc810cb5	-0.01575313
122	0xbc23540c	-0.009968769
123	0xbcacd70a	-0.021098632
124	0xbc522bd8	-0.012827836
125	0xb9ff6dda	-0.00048719236
126	0x3c6faac6	0.014628118
127	0x3cb6916a	0.022286136
128	0xbc0824ce	-0.008309556
129	0xbce55dbd	-0.0279988
130	0xbd9960ed	-0.0748919
131	0xbd860bff	-0.06545257
132	0xbd5706a7	-0.05249658
133	0xbca73f6a	-0.02041598
134	0xbc662173	-0.014046061
135	0xbd2f6e54	-0.042829826
136	0xbced007d	-0.028930897
137	0xbc396b9b	-0.011317159
138	0xbd5e71ce	-0.05430775
139	0xbc94ba77	-0.01815532
140	0xbd923c56	-0.071404144
141	0xbcae00f5	-0.02124069
142	0xbd4971fe	-0.049180977
143	0xbd265f66	-0.040618323
144	0xbc9337ea	-0.017970998
145	0xbc96bfc2	-0.018401984
146	0xbd1ecc1c	-0.038768873
147	0xbd680ad5	-0.056650955
148	0xbcd5a7fa	-0.026081074
149	0xbcd86eaa	-0.026419956
150	0xbd669a1f	-0.056299325
151	0x3d344ae4	0.044016734
152	0xbb92dc14	-0.0044818018
153	0xbcfa4f5b	-0.030555418
154	0x3aba30e1	0.0014205241
155	0x3c823a72	0.01589701
156	0xbbe589c0	-0.0070049465
157	0xbc26e455	-0.010186275
158	0xbd4d6111	-0.050141398
159	0xbd791da3	-0.06081928
160	0xb9c48140	-0.00037480332
161	0x3bfa9d16	0.0076481206
162	0xbcd3568e	-0.025798108
163	0xbd686805	-0.056739826
164	0xbd0734c9	-0.033009324
165	0xbd4b356b	-0.04961149
166	0xbd8053a0	-0.0626595
167	0xbcbc5995	-0.022991935
168	0xbd47672c	-0.048682377
169	0xbc805da9	-0.01566966
170	0xbaf8a73b	-0.0018970737
171	0xbcdb7fd8	-0.02679436
172	0xbccc2f82	-0.024924997
173	0xbd6289dd	-0.055307258
174	0xbc237111	-0.009975688
175	0xbd1266c7	-0.035742547
176	0xbc07efd8	-0.008296929
177	0xbcb70a6d	-0.022343839
178	0xbc103d11	-0.008803622
179	0xbd5e646b	-0.054294985
180	0xbcce782d	-0.025203789
181	0x3cbd737c	0.023126356
182	0xbbed7378	-0.007246431
183	0xbd02f5ff	-0.03197288
184	0xbd364ea8	-0.044508606
185	0xbd057886	-0.032585643
186	0xbd67bff8	-0.05657956
187	0x3c91c03d	0.017791862
188	0xbd029331	-0.031878654
189	0xbbc9d4fa	-0.006159422
190	0xbcad2799	-0.021137046
191	0xbb87ce8a	-0.0041444944
192	0xbd08de91	-0.03341538
193	0xbd53b801	-0.05168915
194	0xbc0cd9fd	-0.008596894
195	0xbc5b5282	-0.013386371
196	0xbc4494e7	-0.011998392
197	0xbd15ca13	-0.036569666
198	0xbd78bfb9	-0.060729716
199	0xbcc7a433	-0.024370288
200	0xbaa564e0	-0.0012618564
201	0xbd292dac	-0.04130332
202	0xbd27148e	-0.040791087
203	0xbb3ed015	-0.0029115726
204	0xbc9fc86c	-0.019504748
205	0x3b85577c	0.004069267
206	0xbc96d15d	-0.018410379
207	0x3c1eaa5c	0.0096841715
208	0xbc84355f	-0.01613873
209	0xbcc78ea3	-0.024360007
210	0xbd1ebbec	-0.038753435
211	0x39e20f4c	0.00043117476
212	0x3bfedeff	0.007778048
213	0xbcf478ee	-0.02984282
214	0xbd842d97	-0.06454008
215	0x3c8a423c	0.016877286
216	0xbc558b42	-0.01303369
217	0x38b3a207	8.565565e-05
218	0x3bd791fc	0.006578682
219	0xbd8c62d0	-0.068547845
220	0xbdfaedba	-0.12252374
221	0xbdb32525	-0.08747319
222	0xbd79901d	-0.060928453
223	0xbd7c560c	-0.0616055
224	0xbc121245	-0.008915489
225	0xbcbcae55	-0.023032347
226	0xbd73ab5b	-0.05948959
227	0xbcbdab44	-0.023152955
228	0xbd8927f6	-0.06697075
229	0x3cb2dcde	0.021833833
230	0x3cb34500	0.021883488
231	0x39c54ad7	0.00037630528
232	0xbd5c435e	-0.053775184
233	0xbc5de670	-0.01354371
234	0xbbe0bc03	-0.0068583502
235	0xbbaf5a7c	-0.0053513627
236	0xbcb418e4	-0.021984525
237	0xbc12988e	-0.008947505
238	0xbb971991	-0.004611202
239	0xbc8e2380	-0.017350912
240	0xbaf9f9d8	-0.0019071652
241	0x3d61bce6	0.05511179
242	0x3a3c958f	0.0007193917
243	0xbcec212e	-0.028824415
244	0xbda19cfc	-0.078912705
245	0xbb009547	-0.0019620226
246	0xbd2e6ffe	-0.042587273
247	0xbd04af22	-0.032393582
248	0xbc0a47da	-0.008439982
249	0xbcfc7934	-0.030819513
250	0xbb8d0a53	-0.0043042093
251	0xbdaf4d81	-0.085597046
252	0xbc58863f	-0.0132156005
253	0xbd3a7cb9	-0.0455291
254	0xbd3a1c4d	-0.045437146
255	0xbd42e1d0	-0.047578633

model_14/dense_95/BiasAdd/ReadVariableOp/resource f4 [256]
0	0x3c6b1b04	0.014349703
1	0x3d585a08	0.052820235
2	0xba9347f1	-0.001123665
3	0xbcd7fa69	-0.026364522
4	0x3c935e64	0.017989345
5	0xbb9fa790	-0.00487227
6	0xbcbc2432	-0.022966478
7	0xbcb38dcb	-0.021918198
8	0xbbb6b956	-0.005576293
9	0xbc332564	-0.010934208
10	0x3d019d81	0.031644348
11	0x3b4c0905	0.0031133306
12	0xbc74c823	-0.014940294
13	0x3cb5b2ed	0.022180045
14	0xbbda5d61	-0.0066639637
15	0x3c64d9e4	0.013967965
16	0x3d128a86	0.035776637
17	0x3c625cef	0.013816102
18	0xbcc7ef3f	-0.024406074
19	0xbcad8f23	-0.021186417
20	0xbc1fe286	-0.009758597
21	0x3c47eed8	0.012202941
22	0x3c9d640c	0.019212745
23	0xbce2472b	-0.027621826
24	0x3c807a50	0.015683323
25	0xbcd52679	-0.026019322
26	0x3c4c1ac7	0.012457556
27	0x3c25ef26	0.010127818
28	0xbc74c8b9	-0.014940434
29	0x3c72a499	0.014809751
30	0xbb52467c	-0.003208547
31	0xbd32accd	-0.043621827
32	0xbceed569	-0.029154496
33	0x3c70ed11	0.014704959
34	0xbcad3514	-0.021143474
35	0xbc5fe39b	-0.013665105
36	0xbccabc01	-0.02474785
37	0x3c82d896	0.015972417
38	0xbcc6b234	-0.024254896
39	0xbc813ec9	-0.015777009
40	0xbd55274c	-0.05203943
41	0xbd1e252f	-0.03860968
42	0xbcbd742a	-0.02312668
43	0xbc6761d3	-0.014122444
44	0x3c95a680	0.01826787
45	0xbd4b7d5d	-0.049680103
46	0x3c5e6587	0.013574011
47	0xbcae71de	-0.02129453
48	0x3ac6cd96	0.001516747
49	0xbbfe2087	-0.0077553424
50	0xbc88a229	-0.016678886
51	0xba7d9686	-0.0009673614
52	0x3bd905ea	0.0066230195
53	0x3b8064ab	0.0039182506
54	0xbc0127ec	-0.007883053
55	0xbcd756a4	-0.02628643
56	0xbc8c90ca	-0.017158885
57	0x3c9422d9	0.018083023
58	0xbcaef9bd	-0.021359319
59	0xbc7b4597	-0.015336416
60	0xbc0ad3a8	-0.008473314
61	0x3c954e35	0.018225769
62	0x3c852a77	0.0162556
63	0x3cb18850	0.021671444
64	0xbb16fb9c	-0.0023038154
65	0xbd1201eb	-0.03564636
66	0x3ca28611	0.019839318
67	0xbcec0d94	-0.028815068
68	0xbcf7ba27	-0.030240132
69	0xbcad49b7	-0.021153314
70	0xbcbe7e79	-0.023253666
71	0x3d5071e7	0.050889876
72	0x3d014be9	0.031566534
73	0xbc615670	-0.013753518
74	0xbd0fb414	-0.035083845
75	0xbc11c458	-0.00889691
76	0x3c7f79f1	0.015593038
77	0xbd0749ea	-0.033029474
78	0xbcd90689	-0.026492374
79	0xbd06d769	-0.032920275
80	0xbcaa94fb	-0.020822993
81	0xbc970c76	-0.018438559
82	0xbd0baf22	-0.034102567
83	0x3c7fc9b5	0.015612056
84	0x3b4e67a2	0.0031494875
85	0xbc745d75	-0.01491486
86	0x3c0d102d	0.008609814
87	0xbcb3fae6	-0.021970224
88	0x3ca4fe79	0.020140873
89	0x3ccedfd5	0.025253216
90	0xbc21cec2	-0.009875955
91	0xbcb10ed1	-0.02161351
92	0x3cab7ce2	0.020933572
93	0xbca70d0c	-0.020391963
94	0x3bd486c9	0.006485794
95	0xbc9e8bce	-0.019353773
96	0xbbe48c75	-0.0069747516
97	0x3b72951e	0.003701515
98	0xbc92a0db	-0.017898967
99	0xbbf90b82	-0.007600249
100	0x3c980e12	0.018561397
101	0xbc176eb1	-0.0092426995
102	0xbd15a219	-0.03653154
103	0x3bdc9117	0.0067311632
104	0xbd14ec25	-0.036358017
105	0xbc204815	-0.009782811
106	0xbc92e80f	-0.01793292
107	0xbccbe36d	-0.024888719
108	0xbcd58f5a	-0.026069332
109	0x3cdcae60	0.026938617
110	0xbc6ddb58	-0.014517628
111	0xbc018e5a	-0.007907474
112	0x3ba1d1ac	0.004938325
113	0x3d10a443	0.035312902
114	0x3c329ee0	0.010902137
115	0x3c6a9f4a	0.014320204
116	0x3a2f37e9	0.00066840515
117	0xbd2f56a8	-0.04280725
118	0x3bdbc6fb	0.00670707
119	0x3ad09d5b	0.0015916036
120	0xbc84bd32	-0.016203497
121	0x3d1fe558	0.03903708
122	0xbbfc37ab	-0.007697066
123	0x3bf710c5	0.007539841
124	0xbc2803d8	-0.010254823
125	0x3c87c25b	0.016572168
126	0x3c03d628	0.008046664
127	0x3c6d70b8	0.014492206
128	0x3b22662f	0.0024780144
129	0xbc9637fb	-0.01833724
130	0x3c088b43	0.008333984
131	0x3b2e8cc2	0.002663419
132	0x3cbbdd16	0.02293257
133	0xbc8da1ef	-0.01728913
134	0xbcd61d8a	-0.026137132
135	0xbd5adcda	-0.053433277
136	0x3c2e73d6	0.010647735
137	0xbbe30b25	-0.0069288188
138	0x3c94ec55	0.018179098
139	0xbd002dfe	-0.03129386
140	0xbbe2dafd	-0.006923078
141	0x3b057c89	0.0020368418
142	0x3c57127b	0.013126965
143	0xbb634fb5	-0.003468496
144	0x3c9c3792	0.019069467
145	0xbc80e03c	-0.015731923
146	0x3b8810cb	0.0041523925
147	0x3c6bb2dc	0.014385905
148	0xbc93c797	-0.018039508
149	0xbb9b736d	-0.0047439844
150	0x3d0ae554	0.03391011
151	0x3be622e7	0.0070232037
152	0xbcb76bf0	-0.022390336
153	0xbbff0142	-0.0077821324
154	0x3ce4dad9	0.027936386
155	0xbd823b43	-0.063589595
156	0xbd28c07c	-0.041199192
157	0x3b55a438	0.0032599103
158	0x3b2e9fe9	0.0026645607
159	0xbd023875	-0.031792123
160	0xbcf8276f	-0.03029224
161	0xbc82abbc	-0.01595103
162	0x3be9f860	0.0071402043
163	0x3aec5f3d	0.0018033754
164	0xbc794fd8	-0.01521679
165	0xbc575079	-0.013141745
166	0xbc97916a	-0.018501956
167	0xbb535a04	-0.0032249698
168	0xbcf02ace	-0.029317286
169	0x3b027da7	0.001991132
170	0xbc17ca45	-0.009264533
171	0xbc8a574c	-0.01688733
172	0x3ca2b6e9	0.019862609
173	0xbc6d60d5	-0.014488419
174	0xbc89b20a	-0.016808528
175	0xbc1fb184	-0.009746913
176	0x3a824fad	0.0009941958
177	0x3afd5aea	0.0019329463
178	0xbba12c2b	-0.0049185953
179	0xbc890d00	-0.016729832
180	0xbc7a93df	-0.015294044
181	0x3c4b85d5	0.012422045
182	0x3ca67765	0.020320604
183	0x3c36f485	0.011166696
184	0x3c218a3c	0.009859618
185	0xbc3d33ab	-0.011547963
186	0xbcc27649	-0.023738043
187	0xbd0ad6ca	-0.033896245
188	0xbaba4152	-0.0014210141
189	0xbcc201e3	-0.02368254
190	0x3c3a9cea	0.01138995
191	0x3c5e1858	0.013555609
192	0xbba45ce7	-0.0050159576
193	0xbacf8c2d	-0.0015834622
194	0xbc08f4aa	-0.008359114
195	0xba4c196a	-0.00077857694
196	0x3c98208b	0.018570205
197	0xbc537586	-0.012906438
198	0xbc3cdf41	-0.011527837
199	0xbbb8bb5c	-0.0056375694
200	0x3c571112	0.0131266285
201	0xbbc3be55	-0.005973617
202	0xbcc91f9a	-0.024551202
203	0xbcbe63cf	-0.023240952
204	0x3ba8b1fd	0.005148171
205	0x3cfbfabf	0.030759213
206	0xbc0110ec	-0.00787757
207	0xbd0e19c1	-0.03469253
208	0xbcd2b9b4	-0.025723316
209	0x3c466d3e	0.012111006
210	0x3bc1ef2f	0.0059184055
211	0x3cfad444	0.030618794
212	0x3c1c06fe	0.009523151
213	0x3c6844e3	0.01417658
214	0xbcfd16f1	-0.030894728
215	0xbc3d2ac8	-0.011545844
216	0xbc297ef9	-0.010345214
217	0xbd1c29cc	-0.038125798
218	0x3c5471e6	0.012966609
219	0x3c70c074	0.014694322
220	0xbc0d6114	-0.008629102
221	0xbd20a696	-0.03922137
222	0xbc1f54b4	-0.009724785
223	0x3c09613a	0.008384997
224	0x3cc24376	0.023713809
225	0xbb2b041b	-0.0026094976
226	0xbc827cc7	-0.01592864
227	0x3d2af211	0.04173476
228	0xbd185d3d	-0.037198294
229	0xbc494daf	-0.012286588
230	0xbc35722d	-0.011074585
231	0x3cad576d	0.021159852
232	0xbbafaa31	-0.0053608646
233	0xbc4061bb	-0.011742051
234	0x3bd9741d	0.0066361562
235	0xbc5618f3	-0.013067472
236	0xbcc8086c	-0.024418078
237	0xbbba5c90	-0.005687304
238	0x3c84185d	0.016124899
239	0xbc924aa6	-0.01785786
240	0x3c6e09b7	0.014528683
241	0x3d28d1a3	0.04121555
242	0xbca385d4	-0.019961275
243	0xbc84dfcd	-0.016219998
244	0x3c6c7286	0.014431601
245	0x3d489785	0.048972625
246	0xbd61671c	-0.055029973
247	0x3ba335c7	0.004980776
248	0x3c5169a1	0.012781532
249	0xbc08d318	-0.00835111
250	0x3cdcb849	0.026943343
251	0xbb697ee7	-0.0035628618
252	0x3ca90313	0.020631349
253	0xbcaa1959	-0.02076404
254	0x3c5d8e8c	0.013522755
255	0xbbbe6b74	-0.0058111493

model_14/dense_96/BiasAdd/ReadVariableOp/resource f4 [128]
0	0x3c224e76	0.009906402
1	0x3ca2cd7e	0.019873377
2	0x3c23920b	0.00998355
3	0xbc796469	-0.015221694
4	0xbc13b171	-0.009014473
5	0xbc881b10	-0.016614467
6	0x3c620825	0.013795887
7	0x3d09174d	0.033469487
8	0x3c96e7bc	0.018421046
9	0x3d2d3f19	0.042296503
10	0xbc0df78f	-0.00866498
11	0x3cb5dfb8	0.022201404
12	0xbbc741ac	-0.0060808267
13	0x3c83b01b	0.016075185
14	0x3c1c4766	0.009538507
15	0x3c54d053	0.0129891215
16	0xbd05c02b	-0.03265397
17	0xbd39bd90	-0.045346797
18	0xbca6c5ff	-0.020358084
19	0xbd378af2	-0.044810243
20	0xbcb66a45	-0.02226747
21	0xbacaf34d	-0.0015483886
22	0xbaf5b596	-0.0018746133
23	0xbab8b401	-0.0014091731
24	0x3caee36a	0.021348674
25	0xbcc41e0a	-0.023940105
26	0x3cd25fd5	0.025680462
27	0x3d13d12e	0.03608816
28	0x3c6297c9	0.013830134
29	0xbcad7345	-0.021173129
30	0xba5695c1	-0.0008185767
31	0x3cae5473	0.021280503
32	0x3cde5907	0.02714206
33	0x3c660b82	0.01404083
34	0xbce56505	-0.028002271
35	0xbcac94a4	-0.021066971
36	0xbca81f5d	-0.020522768
37	0x3cd914e9	0.026499229
38	0xbc2b0609	-0.010438451
39	0x3d1e3a63	0.0386299
40	0xbc8e37a7	-0.017360521
41	0x3bb51d6f	0.0055271904
42	0x3cdb14f9	0.026743399
43	0xbc2aa6d6	-0.010415753
44	0x3c5c1057	0.01343163
45	0xbb4164cc	-0.0029509543
46	0xbcd47e5e	-0.025939163
47	0x3d0631bb	0.03276227
48	0xbc681aa4	-0.014166508
49	0x3c893ff5	0.01675413
50	0xbc730712	-0.014833229
51	0xbbc575c8	-0.0060260035
52	0x3cf33a61	0.029690923
53	0xbc2d9d2c	-0.010596555
54	0x3ccf8b71	0.025335046
55	0x3d11dc95	0.035610754
56	0xbc2df054	-0.010616381
57	0x3d080c1f	0.033214685
58	0x3c125cdf	0.008933275
59	0xbcfc7f0e	-0.030822303
60	0xbcabc15e	-0.020966228
61	0x3bbbc71c	0.005730523
62	0x3c3f1948	0.011663742
63	0xbd0a365b	-0.033743244
64	0xbcb3e299	-0.021958636
65	0xbc415f51	-0.01180251
66	0x3ce75409	0.028238313
67	0xbd097f1c	-0.033568487
68	0xbc8d63fb	-0.017259588
69	0xbc6ed221	-0.014576466
70	0x3c851fbe	0.016250487
71	0xbce17952	-0.02752367
72	0xbbe23754	-0.0069035683
73	0xbca6a4cc	-0.020342253
74	0x3d0a452b	0.03375737
75	0x3c41e7b5	0.011835028
76	0xbcff4303	-0.031159883
77	0x3c08e675	0.0083557265
78	0x3c9c66c8	0.019091979
79	0xbb04b01a	-0.0020246566
80	0x3b9a9a3a	0.0047180923
81	0xbcd8ac6e	-0.026449408
82	0xbae88b27	-0.0017741666
83	0xbbea83fc	-0.007156847
84	0xbc5ea8e0	-0.013590068
85	0xbab52979	-0.0013821564
86	0xbcb8ba6e	-0.022549834
87	0xbbf6c159	-0.007530373
88	0xbcc0ac36	-0.023519617
89	0xba75bc64	-0.00093740807
90	0x3bc38d7c	0.005967794
91	0x3d14e01d	0.036346544
92	0x3bd5b17c	0.006521402
93	0x3c4dda3c	0.012564238
94	0xbc862806	-0.016376507
95	0x3c712616	0.014718553
96	0xbbcb93f4	-0.0062127057
97	0x3d2b23df	0.041782256
98	0x3d40606b	0.04696695
99	0xbcbe9952	-0.023266468
100	0x3d1d5303	0.038409244
101	0xbca915bf	-0.020640252
102	0xbb6ac356	-0.0035821996
103	0xbc6ca4c7	-0.014443583
104	0xbc51e838	-0.012811713
105	0xbc93114d	-0.017952586
106	0xb9c42c91	-0.00037417238
107	0x3cdcd50b	0.026957056
108	0x3c1824eb	0.009286146
109	0xbc6ab01d	-0.014324215
110	0xbb5c02de	-0.0033571045
111	0xbd09fd36	-0.033688746
112	0x3c48549a	0.012227202
113	0x3bc6c523	0.006065981
114	0xbc0c9ba8	-0.008582033
115	0xbc8b6292	-0.017014775
116	0xbc503a5e	-0.012709228
117	0x3bbdb76f	0.0057896893
118	0x3c1fc604	0.0097518
119	0xbb796840	-0.0038056523
120	0x3cea02cf	0.028565792
121	0x3c1935d6	0.009351214
122	0xbcce839e	-0.025209244
123	0x3c0b4cf1	0.008502231
124	0x3d1ab7ec	0.037773058
125	0xbc639e50	-0.013892725
126	0xbcaaa320	-0.020829737
127	0xbbcfd587	-0.006342593

model_14/dense_97/BiasAdd/ReadVariableOp/resource f4 [64]
0	0x3d393edd	0.045225967
1	0x3c3b481d	0.011430767
2	0x3ab11bd0	0.0013512317
3	0x3cd5982f	0.026073543
4	0xb9223c04	-0.00015471881
5	0xbaf4bc2b	-0.0018671801
6	0x3bfa5c70	0.007640414
7	0x3cc3049b	0.023805907
8	0x3c183109	0.009289035
9	0xbc79845f	-0.015229314
10	0xbc9051a0	-0.017617047
11	0xbb6b89db	-0.0035940323
12	0x3ced71e1	0.028984966
13	0xbc754d46	-0.014972037
14	0x3c939077	0.018013222
15	0xbc796d93	-0.015223878
16	0xbbe5a51d	-0.0070082084
17	0xbc8419c8	-0.016125575
18	0x3d4438f3	0.047905874
19	0xbbbe1a2d	-0.0058014602
20	0x3d06c7de	0.032905452
21	0x3cec2c40	0.028829694
22	0x3d4c8574	0.04993196
23	0xbc7309da	-0.014833892
24	0xbc63b4ab	-0.013898055
25	0xbcd2d5fb	-0.0257368
26	0x3ba488ce	0.005021191
27	0x3d261f7f	0.04055738
28	0x3d48c0d6	0.049012028
29	0xbc800eee	-0.015632119
30	0x3d01ca3f	0.031687018
31	0x3ab06490	0.0013457704
32	0xbc8af173	-0.016960835
33	0x3d0dbcf2	0.03460402
34	0xbc7fef1f	-0.015620976
35	0xbcc60849	-0.024173873
36	0x3ce0b16e	0.027428355
37	0x3ce280e0	0.027649343
38	0x3d19dbd7	0.03756317
39	0x3cd7af2f	0.026328651
40	0xbad6c810	-0.0016386528
41	0x3d0ec732	0.034857936
42	0xbc6df768	-0.014524318
43	0xbc9372a5	-0.017999003
44	0xba1a9a08	-0.0005897586
45	0x3c6b1b60	0.014349788
46	0x3d1f9dcb	0.038968842
47	0xbce8e53e	-0.028429624
48	0x3d17f2b0	0.03709668
49	0x3b8fe429	0.0043912125
50	0x3d1b5a52	0.037927933
51	0xbc88bae0	-0.016690671
52	0xbc9b09a6	-0.0189255
53	0x3c39a298	0.011330269
54	0x3cd954e0	0.02652973
55	0xbaf78d3c	-0.0018886696
56	0x3cf5877f	0.029971836
57	0xb9d89ce4	-0.00041315623
58	0xbc3f4c44	-0.011675898
59	0xbbbeebbb	-0.005826441
60	0x3cd40eb3	0.025885915
61	0xbca1774f	-0.019710211
62	0x3c909922	0.017651144
63	0xbc3f589e	-0.011678843

model_14/dense_98/BiasAdd/ReadVariableOp/resource f4 [10]
0	0x3c8f093e	0.017460462
1	0xbbd0fcba	-0.0063777836
2	0x3c358ed2	0.011081414
3	0xbc81253f	-0.01576483
4	0x3c8ee7ac	0.017444454
5	0x3ccb196e	0.0247924
6	0x3cff23c5	0.031144986
7	0xbb708c64	-0.0036704773
8	0xbc97d684	-0.018534906
9	0x3ce43933	0.027859306

model_14/dense_94/MatMul f4 [512, 26]
0	0x3d95cd03	0.073144935
1	0xbdc21db4	-0.09478322
2	0x3cfef782	0.03112388
3	0x3dd6b4ac	0.10483679
4	0x3d51a089	0.05117849
5	0xbde9b7eb	-0.11412033
6	0x3e0dd385	0.1385022
7	0x3d9d7693	0.07688632
8	0x3cf23bff	0.029569624
9	0x3d1ff75b	0.039054256
10	0x3d24c6f9	0.040228818
11	0xbaf82eff	-0.0018934904
12	0x3d3394ab	0.043842953
13	0x3e1cbb4c	0.15305823
14	0x3d28aa58	0.041178077
15	0xbba8a63b	-0.0051467693
16	0x3d4ff2b4	0.05076857
17	0xbdae048c	-0.08496961
18	0x3c974060	0.018463314
19	0x3db119a0	0.08647466
20	0x3d42d746	0.047568582
21	0x3dd152a9	0.10220844
22	0x3d96ac93	0.07357135
23	0x3ca592a5	0.020211527
24	0x3c1d8d63	0.009616229
25	0xbcd9dc40	-0.026594281
26	0x3c007fdb	0.007842983
27	0xbdae70b5	-0.08517591
28	0xbdf90886	-0.12159829
29	0x3d191594	0.037374094
30	0x3d680813	0.056648325
31	0xbd669af0	-0.056300104
32	0xbdecf87d	-0.11570833
33	0x3df7df54	0.12103143
34	0xbd216153	-0.039399456
35	0x3dc82a63	0.097737096
36	0xbdd26590	-0.10273278
37	0x3d3f744d	0.046741772
38	0x3bd2568e	0.0064190095
39	0xbd70d5e5	-0.058797736
40	0xbda455b0	-0.08024156
41	0xbd708ac2	-0.05872608
42	0xbd3700b2	-0.044678397
43	0xbd542923	-0.051797044
44	0xb82a75a4	-4.064072e-05
45	0x3de432f8	0.11142534
46	0xbdcd5cb0	-0.10027444
47	0x3d7c6856	0.06162294
48	0xbc94043d	-0.018068427
49	0x3d6c84b6	0.05774375
50	0xbdb1bc42	-0.086784855
51	0x3d67c7d3	0.05658705
52	0xbc613ff3	-0.013748157
53	0x3d561a87	0.052271392
54	0xbd5fd060	-0.05464208
55	0x3d9fa6ca	0.07795484
56	0xbd4abe67	-0.049497988
57	0x3d79cbf2	0.060985513
58	0x3de1b18e	0.11020194
59	0xbcd65c77	-0.026167138
60	0x3c5dd5ed	0.013539773
61	0x3d317074	0.043320134
62	0x3d397969	0.0452818
63	0xbe272fe2	-0.1632686
64	0x3d1741e9	0.03692809
65	0xbdcba922	-0.09944369
66	0x3d1e58e1	0.03865898
67	0xbb28c21e	-0.0025750468
68	0x3d34fafe	0.044184677
69	0x3dbbb76f	0.091658466
70	0x3c74b584	0.014935855
71	0xbd533827	-0.051567223
72	0x3d8b19ca	0.06792028
73	0xbceee805	-0.02916337
74	0x3d6928f0	0.056923807
75	0xbca69e7c	-0.020339243
76	0xbdbf2b67	-0.0933445
77	0x3daa7313	0.0832273
78	0xbd1c8993	-0.03821714
79	0x3da856b9	0.08219666
80	0x3d951a0e	0.0728036
81	0x3d26f014	0.0407563
82	0x3d8bf798	0.06834334
83	0x3c9c003e	0.019043084
84	0x3d4e5808	0.050376922
85	0x3de0bf91	0.109740384
86	0xbd952c20	-0.07283807
87	0xbdbbd92d	-0.09172282
88	0xbdee584b	-0.11637934
89	0x3d0ec4fe	0.034855835
90	0x3c28c8f1	0.010301814
91	0xbdfdd9de	-0.123950705
92	0x3dcddd1e	0.100519404
93	0x3d5958c8	0.053063184
94	0x3c56a131	0.013099954
95	0xbd9e6d24	-0.07735661
96	0xbd081116	-0.03321942
97	0xbd69fa11	-0.057123248
98	0x3c7b8b7c	0.01535308
99	0x3d274239	0.04083464
100	0xbd0f24d9	-0.03494725
101	0xbc5092ea	-0.01273034
102	0x3dd0cbdf	0.10195135
103	0x3d3deb73	0.04636712
104	0xbd48abf5	-0.048992116
105	0x3db950b0	0.09048593
106	0xbda806de	-0.08204435
107	0x3cdc672c	0.026904665
108	0xbdc567a8	-0.096389115
109	0x3db86386	0.090033576
110	0xbdb61ef3	-0.08892622
111	0x3d842fb7	0.064544134
112	0xbdfbc642	-0.12293674
113	0xbdb71a17	-0.08940523
114	0x3d57e795	0.05271109
115	0x3b939131	0.004503392
116	0x3a187ace	0.0005816639
117	0x3cafe79d	0.021472747
118	0x3cc0300a	0.023460407
119	0xbd91cffe	-0.071197495
120	0xbc9b52a1	-0.018960299
121	0x3d001812	0.031272955
122	0xbde2b782	-0.110701576
123	0xbdbb3f9f	-0.09142994
124	0xbbc0e8d8	-0.005887132
125	0xbdc79e6e	-0.09747015
126	0xbd740779	-0.05957744
127	0x3d178c9d	0.036999334
128	0x3de1a5d9	0.11017961
129	0x3b3061ce	0.0026913765
130	0xbda7d5dc	-0.08195087
131	0x3b83c47b	0.004021225
132	0xbd2461a5	-0.040132184
133	0xbd6cd9da	-0.057824947
134	0x3de72b67	0.11287575
135	0x3c9a46ab	0.018832525
136	0xbde5b7b2	-0.11216678
137	0x39dcaea1	0.0004209178
138	0xbbf187ed	-0.00737094
139	0x3dbd5527	0.09244757
140	0x3d842ecd	0.06454239
141	0xbe0f3b6b	-0.1398751
142	0xbe069508	-0.13142788
143	0x3d75d74c	0.060019776
144	0x3dcf93c6	0.101356074
145	0x3d0e5130	0.034745395
146	0x3cbb7db3	0.022887086
147	0xbd0d1f9f	-0.034453984
148	0x3d7e1254	0.062029198
149	0xbcc1280d	-0.023578668
150	0x3dd5a315	0.10431496
151	0xbb16e2d6	-0.0023023388
152	0x3dc86142	0.097841755
153	0x3c5d407e	0.013504146
154	0xbdd5f799	-0.10447616
155	0xbd7b51a9	-0.061357174
156	0xbe05af88	-0.13055241
157	0x3c9129e1	0.017720165
158	0xbc9e6db2	-0.019339416
159	0x3d8d6a24	0.0690501
160	0xbdeb5d4e	-0.11492406
161	0x3db5ece2	0.088830724
162	0x3da7ac61	0.081871755
163	0x3db93e83	0.09045126
164	0x3cb3e276	0.02195857
165	0xbdbeee5e	-0.09322809
166	0xbd07ff97	-0.033202734
167	0xbd8ba383	-0.06818297
168	0xbd9b94ea	-0.075967625
169	0xbdf13972	-0.11778535
170	0xbd3ab47d	-0.045582283
171	0x3d6d8050	0.057983696
172	0xbdd8b8b3	-0.105821036
173	0xbcc4f0cc	-0.024040602
174	0x3bd233d2	0.006414869
175	0xbdce2d1f	-0.100672
176	0x3d34b0da	0.04411397
177	0x3d85f4bc	0.0654082
178	0xbdaa39cc	-0.08311805
179	0x3d4e5a61	0.05037916
180	0x3d0896fa	0.033347107
181	0x3ca82c6a	0.02052899
182	0xbc6e7d51	-0.014556245
183	0x3da755cd	0.08170662
184	0xbcf3ce0a	-0.029761333
185	0xbc6c3819	-0.014417672
186	0x3db9d1c4	0.09073213
187	0x3dcfe544	0.10151151
188	0xbc0fed23	-0.008784565
189	0x3b242c4c	0.0025050817
190	0x3e046719	0.12929954
191	0xbcdb1139	-0.02674161
192	0x3bd270fe	0.006422161
193	0xbcbc0d6b	-0.022955617
194	0x3de94d9a	0.113917544
195	0x3d0f0feb	0.03492729
196	0xbd45940b	-0.048236888
197	0x3da44882	0.08021642
198	0xbc4070ff	-0.01174569
199	0xbd8a13b8	-0.06742042
200	0xbd149676	-0.036276303
201	0xbd98b2c9	-0.074559756
202	0xbcd7d5cf	-0.02634707
203	0x3ce23012	0.027610812
204	0xbcf086f1	-0.02936122
205	0xbe051133	-0.12994842
206	0xbbddde72	-0.0067709023
207	0xbdca363c	-0.09873626
208	0xbcadf76c	-0.021236144
209	0xbdd6cafa	-0.104879335
210	0x3dcd4d3e	0.100244984
211	0xbca90a7b	-0.02063488
212	0xbd7226ec	-0.05911915
213	0xbd417a12	-0.047235556
214	0x3d867613	0.065654896
215	0x3c082739	0.008310133
216	0xbc25ba93	-0.010115284
217	0x3d0d17df	0.034446593
218	0x3d312f4b	0.043257993
219	0x3c652337	0.013985447
220	0xbca954fe	-0.02067041
221	0xbe1519d9	-0.14560641
222	0x3d036b0f	0.03208452
223	0xbd17e0c3	-0.037079584
224	0x3ceb21b2	0.02870259
225	0xbcb3936a	-0.021920878
226	0xbc7d2b51	-0.015452222
227	0xbdc0b3f2	-0.09409322
228	0xbcade7ea	-0.02122875
229	0xbc63690f	-0.013880028
230	0x3d85bf2d	0.065306045
231	0x3d37bcf2	0.044857927
232	0xbb621314	-0.0034496235
233	0x3dce582d	0.10075412
234	0xbc95dbe9	-0.018293338
235	0xbdee6ac0	-0.11641455
236	0xbd466d87	-0.048444297
237	0x3cf6c45a	0.030122925
238	0xbaa48f52	-0.001255492
239	0x3cda437f	0.026643513
240	0xbbc337a1	-0.005957559
241	0x3d80bb31	0.06285704
242	0xbd46b59d	-0.048513044
243	0xbdc81303	-0.09769251
244	0x3d4e251d	0.050328363
245	0x3d58b00d	0.05290227
246	0x3d0cefb7	0.034408297
247	0x3d9fc4d3	0.07801213
248	0x3b432acd	0.002978015
249	0x3dcb2c52	0.09920563
250	0x3d16c168	0.03680554
251	0xbc47be9e	-0.012191443
252	0x3dc96e33	0.09835472
253	0x3c0fcb20	0.008776456
254	0x3d9636b9	0.07334656
255	0x3e1ea57e	0.15492818

model_14/dense_95/MatMul f4 [256, 512]
0	0xbd5ff235	-0.054674346
1	0xbd852740	-0.06501627
2	0x3d9b1098	0.075715244
3	0xbd2405e6	-0.040044688
4	0xbda11e13	-0.07867064
5	0x3bf1ba1e	0.007376923
6	0xbd8be364	-0.06830481
7	0x3b3c3297	0.0028716677
8	0x3cd8d3f0	0.026468247
9	0x3d22449e	0.03961622
10	0xbd6d4315	-0.057925303
11	0x3d772aec	0.060343668
12	0x3c7bed9e	0.015376477
13	0xbcc3385e	-0.023830589
14	0x3d928f5b	0.07156249
15	0xbcaf0a6a	-0.02136727
16	0xbc2493e5	-0.010045026
17	0x3d7e22bf	0.062044855
18	0x3d423397	0.04741248
19	0xbd570bae	-0.052501373
20	0xbde158ce	-0.11003266
21	0xbcc509d7	-0.024052544
22	0xbdecf1d8	-0.115695655
23	0x3bd86aca	0.006604527
24	0x3caaf775	0.02086995
25	0xbe011104	-0.12604147
26	0xbd689772	-0.056785055
27	0xbc78d77a	-0.015188092
28	0xbdf0d12b	-0.117586456
29	0xbbd304da	-0.0064397873
30	0x3d0f116a	0.034928717
31	0xbb0b575e	-0.0021261792
32	0x3b2c5690	0.0026296712
33	0xbe00370c	-0.12520999
34	0xbd9312d1	-0.07181323
35	0x3c8ffa52	0.017575417
36	0xbd034cb1	-0.03205556
37	0xbda63b33	-0.0811676
38	0xbda204bf	-0.079110615
39	0xbd45e8fe	-0.0483179
40	0xbd647c33	-0.055782508
41	0xbbad390e	-0.0052863425
42	0xbd757fcd	-0.059936333
43	0x3d8429e1	0.064533
44	0xbdb52a1d	-0.08845923
45	0xbcf188ba	-0.029484142
46	0x3d84f66c	0.06492314
47	0xbcd979bf	-0.02654731
48	0xbdd3521c	-0.103183955
49	0xbd555e5e	-0.05209195
50	0xbe02eda8	-0.12785971
51	0xbca1e08b	-0.01976039
52	0x3ca1e693	0.019763267
53	0x3d405d0a	0.04696373
54	0x3d9a70e1	0.07541061
55	0x3d198268	0.03747788
56	0x3d41a687	0.047277953
57	0xbdee58f0	-0.11638057
58	0x3e2601e0	0.16211653
59	0xbd3105f4	-0.043218568
60	0xbd4092f6	-0.047015153
61	0xbd31bb39	-0.04339144
62	0xbdadd5c0	-0.08488035
63	0x3d709e38	0.05874464
64	0xbcc01aea	-0.023450334
65	0xbb86d3ac	-0.0041145887
66	0x3da04532	0.07825698
67	0xbdc3842a	-0.09546693
68	0x3da3b88a	0.079941824
69	0xbda8c621	-0.08240915
70	0x3c6c4f8e	0.014423264
71	0xbcc72730	-0.024310678
72	0x3d927853	0.07151856
73	0x3df67f31	0.120359786
74	0xbd8d2ac3	-0.06892922
75	0xbdc9de1c	-0.09856817
76	0x3d9ce8b8	0.07661575
77	0x3d9cff43	0.07665875
78	0x3c9ee92a	0.01939829
79	0x3d301c7d	0.04299592
80	0x3dc9bac9	0.098500796
81	0x3d3ba403	0.04581071
82	0xbd665ba3	-0.056239735
83	0xbd251e24	-0.040311947
84	0x3d1eebd3	0.03879912
85	0x3d7e8f2e	0.062148266
86	0x3df354bd	0.11881397
87	0x3d99fc9b	0.07518884
88	0xbacb212f	-0.001549756
89	0xbdbcadbf	-0.09212827
90	0x3d39e0c3	0.045380365
91	0x3d976c7f	0.07393741
92	0xbd2c09e9	-0.04200164
93	0xbd5c9725	-0.05385508
94	0x3d4d5020	0.05012524
95	0x3bc3a371	0.0059704115
96	0xbdea7d62	-0.11449696
97	0xbcbaddba	-0.022810806
98	0xbdaf8b42	-0.08571483
99	0x3dde1926	0.108446404
100	0xbdb9d12b	-0.09073099
101	0x3df2beb3	0.11852779
102	0x3db6715f	0.089083426
103	0xbd4a3226	-0.04936423
104	0xbd7512c3	-0.059832346
105	0x3d131ba2	0.035915025
106	0x3dd33f4a	0.10314806
107	0xbd54c518	-0.051945776
108	0xbd9231f5	-0.07138435
109	0x3d3c1443	0.04591776
110	0x3cd990d0	0.02655831
111	0x3d0f2734	0.034949496
112	0x3d1cda62	0.038294204
113	0x3c3f682d	0.011682552
114	0x3c56b364	0.0131042935
115	0xbda2a1ff	-0.079410546
116	0x3d7d7b57	0.061885204
117	0xbd053622	-0.03252233
118	0xbda9da64	-0.08293608
119	0xb9f9a3a5	-0.00047614906
120	0xbd36e155	-0.044648487
121	0xbb3046cb	-0.0026897665
122	0x3d865334	0.065588385
123	0xbc018e7b	-0.007907505
124	0xbe1bc764	-0.1521278
125	0xbd434879	-0.047676537
126	0xbd044a70	-0.03229755
127	0xbd614216	-0.054994665
128	0xbd22ff2a	-0.039794125
129	0x3d82b290	0.06381714
130	0x3dcb97ce	0.09941064
131	0xbcf12fb4	-0.029441692
132	0xbdc6b683	-0.0970278
133	0xbd1be950	-0.0380643
134	0x3d76783e	0.060173266
135	0xbd92878b	-0.07154759
136	0xbd075ac4	-0.033045545
137	0xbb40c1f7	-0.0029412487
138	0xbd98f6d3	-0.07468953
139	0xbb573b06	-0.0032841577
140	0xbdea83aa	-0.11450894
141	0x3da89052	0.08230652
142	0x3c80a896	0.015705388
143	0xbdb1df4a	-0.08685167
144	0x3d12408d	0.03570609
145	0xbd8d04f3	-0.068857096
146	0x3deb2535	0.11481706
147	0x3d27cd4b	0.040967267
148	0xbc1545e8	-0.009110905
149	0x3c75c436	0.015000394
150	0xbd355488	-0.04427007
151	0xbcee7fa8	-0.029113606
152	0xbc9e4cfe	-0.019323822
153	0x3c1b5f49	0.009483167
154	0x3ca84a41	0.02054322
155	0x3b850b99	0.0040602204
156	0xbd60f7d6	-0.054923855
157	0x3e084afe	0.13309857
158	0xbc09931d	-0.008396891
159	0xbd863867	-0.06553727
160	0xbc7d094e	-0.015444113
161	0xbd3f3a0e	-0.046686225
162	0xbdca9609	-0.09891898
163	0xbc9db4dd	-0.019251281
164	0xbd7c5bd9	-0.06161103
165	0xbd9c8f6d	-0.07644544
166	0xbce3a950	-0.027790695
167	0xbde8a808	-0.113601744
168	0xbd833204	-0.06406024
169	0x3cf33177	0.029686673
170	0x3c03cd34	0.00804453
171	0xbd4a803d	-0.049438704
172	0x3c013f38	0.007888608
173	0xbd089081	-0.033340935
174	0xbdb2319c	-0.087008685
175	0xbceb1c8c	-0.028700136
176	0xbd574db8	-0.052564353
177	0x3d9f7c96	0.07787435
178	0xbe0b9f05	-0.1363488
179	0xbda2060c	-0.079113096
180	0x3d85e98c	0.06538686
181	0x3c79907a	0.0152322
182	0x3d005d6f	0.031339105
183	0x3cf3ea13	0.029774701
184	0xbd13566c	-0.03597109
185	0xbcd095ea	-0.02546211
186	0xbd23e281	-0.040010933
187	0x3da2e8bd	0.079545476
188	0xbcb0d95c	-0.02158802
189	0x3dd93f16	0.10607736
190	0xbd58bf6a	-0.05291692
191	0x3cd5400c	0.026031516
192	0xbdcf8609	-0.10132987
193	0xbda76883	-0.08174231
194	0x3dcfad78	0.101405084
195	0x3cbebb89	0.023282783
196	0x3ba19752	0.004931369
197	0x3c82397f	0.015896557
198	0xbd6839f1	-0.056695882
199	0xbd2498d3	-0.040184807
200	0xbb0d7538	-0.002158476
201	0x3de3c1b6	0.11120932
202	0xbd66a0f2	-0.056305833
203	0x3d99dcf5	0.07512847
204	0xbaf6d806	-0.001883269
205	0x3d29ad7a	0.041425206
206	0xbdc413d3	-0.09574094
207	0x3d0c59b7	0.034265246
208	0xbbbbe75c	-0.0057343673
209	0x3bf0191f	0.0073272134
210	0xbd4edd23	-0.05050386
211	0x3ca5cee0	0.020240247
212	0xbd0973e5	-0.03355779
213	0xbdaecee4	-0.08535555
214	0x3d63c4cd	0.055607606
215	0xbd08d3df	-0.03340518
216	0xbd288ac1	-0.04114795
217	0xbe075b68	-0.13218462
218	0xbc9c6ea6	-0.01909573
219	0xbdac53a0	-0.08414388
220	0xbd44acdd	-0.048016418
221	0x3d1e8912	0.03870494
222	0xbd252993	-0.04032285
223	0xbdd58f11	-0.104276784
224	0xbdd150e1	-0.102205046
225	0xbcbfb78f	-0.023402957
226	0xbdd5a327	-0.104315095
227	0xbdccaf88	-0.099944174
228	0xbd4ccd79	-0.05000064
229	0xbdc38419	-0.0954668
230	0xbdeb1637	-0.114788465
231	0x3d8f6f2a	0.07003625
232	0x3d4df364	0.050280944
233	0xbd6f4c9e	-0.058422677
234	0x3dff115b	0.12454482
235	0x3cc484d6	0.023989122
236	0xbdbfd296	-0.09366338
237	0xbde2aa84	-0.110676795
238	0x3c0b7d0a	0.008513698
239	0x3dfec3d9	0.12439699
240	0xbd1c902b	-0.038223427
241	0x3d602de9	0.054731283
242	0xbddf0970	-0.10890472
243	0xbda7974b	-0.08183154
244	0x3bcfb408	0.0063386
245	0x3d201c65	0.03908958
246	0x3cef2d82	0.029196505
247	0x3d82da9d	0.063893534
248	0xbd882549	-0.066477366
249	0xbdeecef9	-0.11660571
250	0xbd3cc9fd	-0.04609107
251	0xbd90c440	-0.07068682
252	0xbdb17f2d	-0.08666835
253	0x3b903b83	0.0044016256
254	0xbcc7156f	-0.024302213
255	0xbd728311	-0.059207026

model_14/dense_96/MatMul f4 [128, 256]
0	0xbad9da4f	-0.0016620847
1	0xbd0ab707	-0.033865955
2	0xbc85b22e	-0.016320314
3	0x3c898511	0.016787084
4	0xbc9e28d0	-0.01930657
5	0x3d6efaab	0.058344524
6	0xbe0419e4	-0.12900501
7	0x3d4301a0	0.04760897
8	0xbcbf7c17	-0.0233746
9	0x3ca85429	0.020547943
10	0xba21db47	-0.00061743375
11	0x3dd608d6	0.10450904
12	0x3d9c7a88	0.076405585
13	0x3cc01d53	0.023451483
14	0xbe140f12	-0.14458874
15	0xbca8178b	-0.020519039
16	0x3e275251	0.16339995
17	0x3d65341b	0.055957895
18	0xbcef5ddd	-0.029219562
19	0xbd6a5e8f	-0.057219084
20	0x3c6a5d53	0.014304477
21	0xbdc8636e	-0.0978459
22	0xbda5d840	-0.08097887
23	0xbc16ad8b	-0.009196649
24	0x3cf50eb8	0.029914245
25	0x3d407694	0.046988085
26	0xba90802d	-0.0011024527
27	0xbe0294aa	-0.12752023
28	0x3d524665	0.051336665
29	0xbe19a038	-0.15002525
30	0x3d9d57a6	0.07682733
31	0xbc2c14c7	-0.010503001
32	0xbde4ad76	-0.111658975
33	0x3d824c68	0.063622296
34	0xbdf2d9d6	-0.11857955
35	0xbdd4d7fb	-0.103927575
36	0xbe094f8d	-0.13409252
37	0x3c5e18f2	0.013555752
38	0xbd86f2f7	-0.065893106
39	0xbd327d56	-0.04357656
40	0xbe03cca9	-0.1287104
41	0x3d2526a6	0.04032006
42	0xbd84102e	-0.064483985
43	0xbd2135a4	-0.039357796
44	0x3b18d0fb	0.0023317921
45	0x3df0a6a8	0.11750537
46	0xbe0bd3d4	-0.13655025
47	0xbd1c740e	-0.038196616
48	0xbde71cfe	-0.11284827
49	0x3d3b193a	0.045678355
50	0x3c1469b0	0.009058401
51	0x3e053b18	0.13010824
52	0x3db57f87	0.088622145
53	0xbd568902	-0.052376755
54	0xbdf18f3e	-0.117948994
55	0xbd7ed342	-0.06221319
56	0xbdc21dbe	-0.09478329
57	0x3e1e43f5	0.15455611
58	0xbe022925	-0.12711008
59	0xbdb98757	-0.09059017
60	0x3da2c6e1	0.079480894
61	0xbd3ac265	-0.045595545
62	0x3d7a74de	0.06114661
63	0xbcb5d875	-0.022197941
64	0x3e0abe3d	0.13549133
65	0x3dd6320a	0.10458763
66	0x3d826901	0.06367684
67	0x3d857cc0	0.06517935
68	0xbd1dc925	-0.038521904
69	0x3d9e6067	0.07733231
70	0xbce981fa	-0.02850436
71	0xb9109b6c	-0.0001379081
72	0x3d18817c	0.03723286
73	0x3cde9fd2	0.027175818
74	0x3a15c58a	0.00057133345
75	0xbe053e5d	-0.13012071
76	0x3e10c2ce	0.14136812
77	0xbe095d00	-0.13414383
78	0x3db81d13	0.089899205
79	0xbda8a672	-0.08234872
80	0x3db3c98e	0.08778678
81	0xbd883946	-0.06651549
82	0x3d9639f2	0.07335271
83	0x3d47ce46	0.048780702
84	0x3d4cd9fa	0.050012566
85	0x3da4df79	0.080504365
86	0x3dd00e09	0.10158927
87	0x3cd0d5dd	0.025492603
88	0x3c28ee41	0.01031071
89	0xbd257002	-0.040390022
90	0xbe0a9578	-0.1353358
91	0xbe136037	-0.14392172
92	0xbd89b897	-0.06724661
93	0xbd7e4f27	-0.062087204
94	0x3e865549	0.26236942
95	0x3deb152b	0.11478647
96	0xbd9e0eb8	-0.07717651
97	0xbdf5763c	-0.11985442
98	0x3dc2181f	0.09477257
99	0x3d442bfa	0.0478935
100	0x3ddca281	0.10773183
101	0xbdbcd228	-0.092197716
102	0xbd9ebc2c	-0.07750735
103	0x3c96e5c0	0.0184201
104	0xbbcfe48b	-0.006344383
105	0xbd5ee5f1	-0.054418508
106	0xbcce876f	-0.025211064
107	0x3c7f3ad8	0.015577994
108	0xbdbfe4c4	-0.093698055
109	0xbe0a2a39	-0.13492669
110	0x3da9e715	0.082960285
111	0xbd27bbc4	-0.04095055
112	0x3df97d28	0.12182075
113	0xbb402a4a	-0.0029322081
114	0x3cb9f938	0.022701845
115	0xbdb57ec7	-0.088620715
116	0x3dc44b58	0.09584683
117	0x3d017536	0.03160592
118	0x3e370674	0.17873555
119	0xbda23d71	-0.07921875
120	0xbb60774d	-0.0034250796
121	0xbc8a219b	-0.016861727
122	0x3e25b8be	0.16183755
123	0x3db24549	0.08704621
124	0x3d18d74c	0.037314698
125	0xba611281	-0.0008585826
126	0x3d840a4a	0.06447275
127	0x3dca8738	0.09889072
128	0xbc47045a	-0.012147034
129	0x3c9e3d64	0.019316383
130	0x3d2f1ca6	0.04275193
131	0x3c943d88	0.018095747
132	0xbd4449d1	-0.04792196
133	0xbe0641c6	-0.13111028
134	0x3da89050	0.082306504
135	0xbd8ea736	-0.06965487
136	0xbddd34f1	-0.108011134
137	0x3d92c7cd	0.07167015
138	0xbafea6c6	-0.0019428364
139	0x3d3b84d1	0.04578096
140	0x3df9aefc	0.12191579
141	0xbdedd40d	-0.11612711
142	0xbd9136fd	-0.07090566
143	0xbce74c7e	-0.028234717
144	0x3d122efa	0.03568933
145	0x3d6ba819	0.057533357
146	0xbe02aa55	-0.12760289
147	0x3d20882e	0.03919237
148	0x3bae1724	0.005312817
149	0x3e17d61b	0.14827769
150	0x3d9afb6c	0.07567486
151	0x3d1b009a	0.03784237
152	0xbd60878f	-0.05481678
153	0xbe0898cf	-0.13339542
154	0xbd9da8e6	-0.076982304
155	0xbcf45082	-0.029823545
156	0xbd466b1a	-0.048441984
157	0xbd5b8794	-0.053596094
158	0xbe1d49cc	-0.15360183
159	0xbdf277c6	-0.11839251
160	0x3c9e52d6	0.019326609
161	0xbcb28d2b	-0.02179583
162	0x3dadd351	0.08487571
163	0xbd0d63c1	-0.03451896
164	0xbba68f70	-0.005083017
165	0xbd1be933	-0.038064193
166	0xbde2f61d	-0.11082099
167	0x3df1170a	0.117719725
168	0xbdfd8bc7	-0.12380176
169	0x3dbe22ac	0.09283957
170	0x3d8d6065	0.069031514
171	0xbcf5d9d4	-0.030011095
172	0xbb7aecd5	-0.0038288136
173	0xbc6e9505	-0.014561896
174	0x3d3abf30	0.045592487
175	0x3d287a66	0.041132353
176	0xbd0b97dc	-0.03408037
177	0x3c79e204	0.01525164
178	0xbda94485	-0.08265022
179	0xbd3567d4	-0.04428847
180	0x3d5e52a1	0.05427802
181	0xbddcc8ac	-0.107804626
182	0x3c842db7	0.01613508
183	0x3d94610a	0.07245071
184	0xbdb2c9b4	-0.08729878
185	0x3cd83d9a	0.026396561
186	0x3d9b639b	0.075873576
187	0x3dc648d9	0.09681863
188	0x3ce66f17	0.028129144
189	0xbe0a2a6d	-0.13492747
190	0x3e166d91	0.14690234
191	0xbdaffb4f	-0.08592855
192	0x3dd19d81	0.102351196
193	0xbd528a69	-0.05140153
194	0xbbc384ad	-0.005966744
195	0xbdd85842	-0.10563709
196	0x3c356ab7	0.011072806
197	0xbc464721	-0.012101919
198	0xbe00f868	-0.1259476
199	0xbdac5745	-0.08415083
200	0xbd0ff51a	-0.035145856
201	0xbdde04b4	-0.10840741
202	0xbc8a40a6	-0.01687653
203	0xbde5dd03	-0.11223795
204	0x3abf4abe	0.0014594418
205	0x3df285e4	0.11841944
206	0x3d0b3b5c	0.033992156
207	0xbd254ab2	-0.040354438
208	0xbde37233	-0.11105766
209	0xbd48c05b	-0.04901157
210	0x3da1f319	0.07907695
211	0x3db9ed3f	0.09078454
212	0x3c69f4c2	0.014279546
213	0xbd4955a0	-0.049153924
214	0xbd9ad1e7	-0.07559567
215	0xbdd52859	-0.10408086
216	0x3e009674	0.12557393
217	0xbd95d05b	-0.07315131
218	0xbd482779	-0.04886577
219	0x3e2da545	0.16957577
220	0xbdc8d6f3	-0.09806623
221	0xbd5307c5	-0.05152108
222	0xbbfae985	-0.007657232
223	0x3d1083c2	0.035281904
224	0x3d8dd54a	0.06925447
225	0xbd962349	-0.07330949
226	0x3df99fde	0.12188695
227	0x3d6440d7	0.0557259
228	0x3d8656f5	0.065595545
229	0x3cbac136	0.022797208
230	0x3d5a1702	0.0532446
231	0x3d279cc1	0.040920977
232	0xbde6fb5e	-0.11278413
233	0xbdc9cb36	-0.098532125
234	0x3d756b54	0.05991681
235	0x3d89ae3d	0.067226864
236	0xbd3957d4	-0.045249775
237	0xbcdf9b94	-0.027295865
238	0xbd1f28fe	-0.038857453
239	0xbdf6d7d8	-0.12052888
240	0x3d4597fb	0.048240643
241	0xbd9f6057	-0.07782047
242	0x3d9cfe35	0.07665674
243	0x3cb5c088	0.022186533
244	0x3dd2033b	0.102545224
245	0xbe012fbb	-0.12615864
246	0xbe2e6046	-0.17028913
247	0x3d379046	0.044815324
248	0x3cea956d	0.028635705
249	0x3dac93e0	0.084266424
250	0xbd78cc7c	-0.060741886
251	0x3d897cf9	0.0671329
252	0x3e2c0ddc	0.16802162
253	0xbd815dc1	-0.0631671
254	0x3d371071	0.044693414
255	0x3d73cff5	0.059524495

model_14/dense_97/MatMul f4 [64, 128]
0	0x3e18cf1d	0.14922757
1	0x3d82ff8f	0.063964
2	0xbdbc63ca	-0.09198721
3	0x3cb5ae81	0.022177937
4	0x3e1a829d	0.15088888
5	0xbd4bcf4c	-0.04975824
6	0xbe2dc69f	-0.16970299
7	0x3e02691e	0.12735412
8	0x3e4a8201	0.19776155
9	0xbbf0b006	-0.0073452024
10	0x3d10d89a	0.035362817
11	0x3c94dfe3	0.018173164
12	0x3e5c8430	0.215348
13	0xbd9f215b	-0.07770034
14	0xbccc8ac4	-0.024968512
15	0x3d827510	0.06369984
16	0x3d2927f7	0.04129788
17	0x3e00e45f	0.12587117
18	0xbe100042	-0.14062598
19	0xbde7aeca	-0.11312635
20	0xbe0b0ee3	-0.13579898
21	0xbe1d5da4	-0.15367752
22	0xbd3a715e	-0.04551827
23	0xbe22b0de	-0.15887782
24	0xbd35dbf9	-0.044399235
25	0x3d33c23f	0.04388642
26	0x3e2f4e7c	0.17119783
27	0x3dec6282	0.115422264
28	0xbd9a12e4	-0.07523134
29	0x3dd1ae39	0.102383085
30	0x3e2774cf	0.16353153
31	0xbd63c73c	-0.055609927
32	0x3e38e269	0.18055119
33	0x3cc67e14	0.02423004
34	0xbdc8dcbd	-0.098077275
35	0xbb3c9fbe	-0.0028781737
36	0x3e0fb68a	0.14034477
37	0xbe144e95	-0.14483102
38	0xbe1b1cfc	-0.15147775
39	0x3d39f7bc	0.045402274
40	0xbd596139	-0.053071234
41	0x3d593489	0.053028617
42	0x3d939449	0.072060175
43	0x3db961d0	0.090518594
44	0xbe28f754	-0.16500598
45	0x3d96279a	0.07331772
46	0x3d3b260e	0.04569059
47	0x3e35f0fd	0.17767711
48	0x3d9ca04c	0.07647762
49	0x3e0e5a60	0.13901663
50	0xbdf0ddc0	-0.117610455
51	0xbd5bc83f	-0.053657766
52	0x3d888fd6	0.066680595
53	0x3dba47b5	0.09095708
54	0x3c53560d	0.012898934
55	0x3d6fb14e	0.0585187
56	0x3e089605	0.13338478
57	0xbda8c2c5	-0.08240274
58	0x3d68f073	0.056869935
59	0x3d3d8ec2	0.046278723
60	0xbe53cbd3	-0.20683222
61	0xbe2022ed	-0.15638323
62	0x3cb7da52	0.02244297
63	0xbe085527	-0.13313733
64	0xbd89cbbc	-0.067283124
65	0xbe174e1d	-0.14775892
66	0x3e389490	0.18025422
67	0xbe03fee5	-0.12890203
68	0x3c76116c	0.015018802
69	0xbcd2c075	-0.025726536
70	0xbd9015ad	-0.07035384
71	0xbe26baf6	-0.16282257
72	0xbe141f53	-0.14465074
73	0x3d85eace	0.06538926
74	0x3ded2b83	0.11580565
75	0x3d8d1395	0.068885006
76	0x3e1feb66	0.15617141
77	0xbe066c64	-0.13127285
78	0x3e07789d	0.13229604
79	0xbcf09b5f	-0.029370962
80	0x3ddef893	0.108872555
81	0xbd723636	-0.05913373
82	0x3c83a694	0.016070642
83	0xbcc3d25c	-0.023904018
84	0xbe2db961	-0.16965248
85	0xbe1c30b2	-0.15252951
86	0xbe352dcb	-0.1769325
87	0xba81c98b	-0.0009901983
88	0xbcfba0a6	-0.030716252
89	0x3d955b49	0.07292802
90	0xbe1ec31e	-0.15504119
91	0xbdb3c8a3	-0.08778503
92	0xbe23b5fd	-0.15987392
93	0x3e408364	0.18800122
94	0x3d15ee0c	0.036603972
95	0x3e4282cf	0.18995212
96	0x3dbc1321	0.09183336
97	0x3cf58013	0.029968297
98	0x3e0cd991	0.1375487
99	0xbd94278f	-0.07234108
100	0x3d3e96ae	0.046530418
101	0xbdbb6581	-0.0915022
102	0xbde9d0f7	-0.1141681
103	0x3dfdbb51	0.123892434
104	0xbddd8a97	-0.108174495
105	0x3c847359	0.016168283
106	0x3c4283c5	0.011872237
107	0x3e0f1f45	0.13976772
108	0xbd290c61	-0.04127157
109	0xbe0c4357	-0.13697563
110	0x3e4ba04b	0.19885366
111	0x3c8affe5	0.016967723
112	0x3d73d51c	0.05952941
113	0xbd8689f0	-0.06569278
114	0xba87a3ac	-0.0010348461
115	0xbce2681d	-0.027637536
116	0xbd674fca	-0.056472577
117	0x3e3eb6e1	0.1862445
118	0xbd345645	-0.044027586
119	0xbe0b060d	-0.13576527
120	0x3dbb0149	0.091311045
121	0x3e186968	0.1488396
122	0x3db2dc35	0.087334074
123	0x3d162cf7	0.036663976
124	0x3d5414cb	0.051777642
125	0x3d709b8c	0.05874209
126	0x3b837ea6	0.0040129004
127	0x3de31420	0.11087823
128	0x3e0fcbf5	0.14042647
129	0x3e0cc976	0.13748726
130	0xbd7f3df2	-0.062314935
131	0xbc501cf5	-0.012702216
132	0x3d0b0da8	0.03394857
133	0xbdd6d553	-0.10489907
134	0xbe2c1543	-0.16804986
135	0x3df1afe3	0.11801126
136	0x3b89d6cd	0.0042065145
137	0xbdc4fe4e	-0.09618817
138	0xbcb115d7	-0.02161686
139	0x3de8570c	0.11344728
140	0xbd94c4cf	-0.07264101
141	0x3dc98922	0.09840609
142	0x3e4b0cd8	0.19829118
143	0x3e2b622f	0.16736673
144	0xbe458cf1	-0.19292046
145	0x3d9a2b87	0.075278334
146	0xbe44bf3f	-0.1921358
147	0x3daf72ba	0.08566804
148	0x3d9637e6	0.073348805
149	0xbd393dbb	-0.045224886
150	0xbdc9e5d2	-0.09858288
151	0xbdff8922	-0.12477328
152	0x3e29a9f4	0.16568738
153	0x3dd42dda	0.10360308
154	0x3e08b870	0.13351607
155	0x3e30e79b	0.1727585
156	0xbcc6415b	-0.024201086
157	0xbe4389fd	-0.19095607
158	0x3dc288f5	0.09498779
159	0xbc7759d9	-0.015097105
160	0x3dcee295	0.10101811
161	0x3e0dfc6a	0.1386582
162	0xbe29e1cb	-0.1659004
163	0x3e0ab98b	0.13547342
164	0x3dfbeba4	0.12300804
165	0x3d2bd0d8	0.041947216
166	0xbe65d371	-0.2244394
167	0xbb0355f3	-0.0020040243
168	0xbdcba2cd	-0.09943161
169	0x3d91d732	0.071211234
170	0xbd05e4d8	-0.032688946
171	0x3ccf8680	0.02533269
172	0xbd008928	-0.031380802
173	0x3c3fcd99	0.011706733
174	0x3d5b2957	0.05350622
175	0x3d9e8fc9	0.077422686
176	0xbcca2f44	-0.024680741
177	0xbe023f59	-0.12719478
178	0x3e0bbc67	0.13646089
179	0xbdc7d01a	-0.09756489
180	0x3ce69bbd	0.028150434
181	0x3dfa2c8b	0.12215527
182	0xbe068e2e	-0.13140175
183	0x3e347587	0.17622958
184	0x3d38004d	0.04492216
185	0x3ddd47fe	0.10804747
186	0x3dfacf4a	0.122465685
187	0x3cd7064b	0.026248118
188	0xbe18d783	-0.14925961
189	0xbe3117df	-0.17294262
190	0x3c801516	0.015635055
191	0x3d64369e	0.05571615
192	0x3ba09aed	0.004901281
193	0x3dc504a4	0.09620026
194	0xbc80a336	-0.015702825
195	0x3db15b9a	0.0866005
196	0x3d71263e	0.05887436
197	0xbe0bfc00	-0.13670349
198	0x3db62d80	0.08895397
199	0x3d6b2b3c	0.05741428
200	0x3d986161	0.074404486
201	0xbc4afe6d	-0.012389761
202	0xbcd82d03	-0.02638865
203	0x3e25d042	0.16192725
204	0x3dd731ef	0.10507571
205	0xbc40172e	-0.0117242765
206	0xbdb0092c	-0.085954994
207	0xbdae706a	-0.08517535
208	0xbdc88c1e	-0.0979235
209	0xbe3ca806	-0.18423471
210	0x3d61c3db	0.055118423
211	0x3c6dea71	0.014521227
212	0xbe06eff3	-0.13177471
213	0x3d682535	0.05667611
214	0x3ddbc161	0.107302435
215	0xbbf60a27	-0.0075085345
216	0x3e37904a	0.17926136
217	0xbe07a1bc	-0.1324529
218	0x3df7af77	0.12094014
219	0x3da8970e	0.082319364
220	0xbdd7d009	-0.105377264
221	0x3e269657	0.16268288
222	0x3cbed923	0.023296898
223	0xbd6a6012	-0.057220526
224	0x3d7310b7	0.059342112
225	0xbd871f36	-0.0659775
226	0xbd00ff87	-0.03149369
227	0x3dd13ab6	0.10216276
228	0x3e30b21f	0.17255448
229	0x3dac9410	0.08426678
230	0xbe27cb57	-0.16386162
231	0x3d2b10cb	0.041764062
232	0xbdf425a1	-0.1192124
233	0x3e17eda7	0.14836751
234	0xbdd0d97e	-0.10197733
235	0xbda7e8c6	-0.08198695
236	0x3c0e9670	0.008702859
237	0xbe51f659	-0.2050413
238	0x3e2d00aa	0.16894785
239	0xbd2afaf5	-0.041743238
240	0x3cf9106e	0.030403342
241	0x3e020c4b	0.12700002
242	0xbe060475	-0.13087638
243	0x3d9b8a65	0.07594756
244	0xbe1b5ec2	-0.15172866
245	0x3bc5dc26	0.0060382066
246	0x3dee3453	0.11631074
247	0xbe112a99	-0.14176406
248	0xbb614a9d	-0.0034376748
249	0x3db8856e	0.09009825
250	0xbc6e4e65	-0.014545058
251	0x3d73a4c4	0.059483305
252	0x3d7bcab4	0.06147261
253	0xbc493983	-0.012281778
254	0x3d4ce824	0.050026074
255	0x3dc93294	0.098241
